…
rained-models/cornell-randsplit-rgbd-grconvnet3-drop1-ch16/arch.txt
--- OWG-upstream/robotic-grasping-master/trained-models/cornell-randsplit-rgbd-grconvnet3-drop1-ch16/arch.txt	1970-01-01 07:30:00.000000000 +0730
+++ OWG-main/robotic-grasping-master/trained-models/cornell-randsplit-rgbd-grconvnet3-drop1-ch16/arch.txt	2021-11-10 04:05:50.000000000 +0800
@@ -0,0 +1,57 @@
+----------------------------------------------------------------
+        Layer (type)               Output Shape         Param #
+================================================================
+            Conv2d-1         [-1, 16, 224, 224]           5,200
+       BatchNorm2d-2         [-1, 16, 224, 224]              32
+            Conv2d-3         [-1, 32, 112, 112]           8,224
+       BatchNorm2d-4         [-1, 32, 112, 112]              64
+            Conv2d-5           [-1, 64, 56, 56]          32,832
+       BatchNorm2d-6           [-1, 64, 56, 56]             128
+            Conv2d-7           [-1, 64, 56, 56]          36,928
+       BatchNorm2d-8           [-1, 64, 56, 56]             128
+            Conv2d-9           [-1, 64, 56, 56]          36,928
+      BatchNorm2d-10           [-1, 64, 56, 56]             128
+    ResidualBlock-11           [-1, 64, 56, 56]               0
+           Conv2d-12           [-1, 64, 56, 56]          36,928
+      BatchNorm2d-13           [-1, 64, 56, 56]             128
+           Conv2d-14           [-1, 64, 56, 56]          36,928
+      BatchNorm2d-15           [-1, 64, 56, 56]             128
+    ResidualBlock-16           [-1, 64, 56, 56]               0
+           Conv2d-17           [-1, 64, 56, 56]          36,928
+      BatchNorm2d-18           [-1, 64, 56, 56]             128
+           Conv2d-19           [-1, 64, 56, 56]          36,928
+      BatchNorm2d-20           [-1, 64, 56, 56]             128
+    ResidualBlock-21           [-1, 64, 56, 56]               0
+           Conv2d-22           [-1, 64, 56, 56]          36,928
+      BatchNorm2d-23           [-1, 64, 56, 56]             128
+           Conv2d-24           [-1, 64, 56, 56]          36,928
+      BatchNorm2d-25           [-1, 64, 56, 56]             128
+    ResidualBlock-26           [-1, 64, 56, 56]               0
+           Conv2d-27           [-1, 64, 56, 56]          36,928
+      BatchNorm2d-28           [-1, 64, 56, 56]             128
+           Conv2d-29           [-1, 64, 56, 56]          36,928
+      BatchNorm2d-30           [-1, 64, 56, 56]             128
+    ResidualBlock-31           [-1, 64, 56, 56]               0
+  ConvTranspose2d-32         [-1, 32, 113, 113]          32,800
+      BatchNorm2d-33         [-1, 32, 113, 113]              64
+  ConvTranspose2d-34         [-1, 16, 225, 225]           8,208
+      BatchNorm2d-35         [-1, 16, 225, 225]              32
+  ConvTranspose2d-36         [-1, 16, 225, 225]          20,752
+          Dropout-37         [-1, 16, 225, 225]               0
+           Conv2d-38          [-1, 1, 224, 224]              65
+          Dropout-39         [-1, 16, 225, 225]               0
+           Conv2d-40          [-1, 1, 224, 224]              65
+          Dropout-41         [-1, 16, 225, 225]               0
+           Conv2d-42          [-1, 1, 224, 224]              65
+          Dropout-43         [-1, 16, 225, 225]               0
+           Conv2d-44          [-1, 1, 224, 224]              65
+================================================================
+Total params: 479,156
+Trainable params: 479,156
+Non-trainable params: 0
+----------------------------------------------------------------
+Input size (MB): 0.77
+Forward/backward pass size (MB): 110.74
+Params size (MB): 1.83
+Estimated Total Size (MB): 113.34
+----------------------------------------------------------------
Binary files OWG-upstream/robotic-grasping-master/trained-models/cornell-randsplit-rgbd-grconvnet3-drop1-ch16/epoch_17_iou_0.96 and OWG-main/robotic-grasping-master/trained-models/cornell-randsplit-rgbd-grconvnet3-drop1-ch16/epoch_17_iou_0.96 differ
…
rained-models/cornell-randsplit-rgbd-grconvnet3-drop1-ch32/arch.txt
--- OWG-upstream/robotic-grasping-master/trained-models/cornell-randsplit-rgbd-grconvnet3-drop1-ch32/arch.txt	1970-01-01 07:30:00.000000000 +0730
+++ OWG-main/robotic-grasping-master/trained-models/cornell-randsplit-rgbd-grconvnet3-drop1-ch32/arch.txt	2021-11-10 04:05:50.000000000 +0800
@@ -0,0 +1,57 @@
+----------------------------------------------------------------
+        Layer (type)               Output Shape         Param #
+================================================================
+            Conv2d-1         [-1, 32, 224, 224]          10,400
+       BatchNorm2d-2         [-1, 32, 224, 224]              64
+            Conv2d-3         [-1, 64, 112, 112]          32,832
+       BatchNorm2d-4         [-1, 64, 112, 112]             128
+            Conv2d-5          [-1, 128, 56, 56]         131,200
+       BatchNorm2d-6          [-1, 128, 56, 56]             256
+            Conv2d-7          [-1, 128, 56, 56]         147,584
+       BatchNorm2d-8          [-1, 128, 56, 56]             256
+            Conv2d-9          [-1, 128, 56, 56]         147,584
+      BatchNorm2d-10          [-1, 128, 56, 56]             256
+    ResidualBlock-11          [-1, 128, 56, 56]               0
+           Conv2d-12          [-1, 128, 56, 56]         147,584
+      BatchNorm2d-13          [-1, 128, 56, 56]             256
+           Conv2d-14          [-1, 128, 56, 56]         147,584
+      BatchNorm2d-15          [-1, 128, 56, 56]             256
+    ResidualBlock-16          [-1, 128, 56, 56]               0
+           Conv2d-17          [-1, 128, 56, 56]         147,584
+      BatchNorm2d-18          [-1, 128, 56, 56]             256
+           Conv2d-19          [-1, 128, 56, 56]         147,584
+      BatchNorm2d-20          [-1, 128, 56, 56]             256
+    ResidualBlock-21          [-1, 128, 56, 56]               0
+           Conv2d-22          [-1, 128, 56, 56]         147,584
+      BatchNorm2d-23          [-1, 128, 56, 56]             256
+           Conv2d-24          [-1, 128, 56, 56]         147,584
+      BatchNorm2d-25          [-1, 128, 56, 56]             256
+    ResidualBlock-26          [-1, 128, 56, 56]               0
+           Conv2d-27          [-1, 128, 56, 56]         147,584
+      BatchNorm2d-28          [-1, 128, 56, 56]             256
+           Conv2d-29          [-1, 128, 56, 56]         147,584
+      BatchNorm2d-30          [-1, 128, 56, 56]             256
+    ResidualBlock-31          [-1, 128, 56, 56]               0
+  ConvTranspose2d-32         [-1, 64, 113, 113]         131,136
+      BatchNorm2d-33         [-1, 64, 113, 113]             128
+  ConvTranspose2d-34         [-1, 32, 225, 225]          32,800
+      BatchNorm2d-35         [-1, 32, 225, 225]              64
+  ConvTranspose2d-36         [-1, 32, 225, 225]          82,976
+          Dropout-37         [-1, 32, 225, 225]               0
+           Conv2d-38          [-1, 1, 224, 224]             129
+          Dropout-39         [-1, 32, 225, 225]               0
+           Conv2d-40          [-1, 1, 224, 224]             129
+          Dropout-41         [-1, 32, 225, 225]               0
+           Conv2d-42          [-1, 1, 224, 224]             129
+          Dropout-43         [-1, 32, 225, 225]               0
+           Conv2d-44          [-1, 1, 224, 224]             129
+================================================================
+Total params: 1,900,900
+Trainable params: 1,900,900
+Non-trainable params: 0
+----------------------------------------------------------------
+Input size (MB): 0.77
+Forward/backward pass size (MB): 219.96
+Params size (MB): 7.25
+Estimated Total Size (MB): 227.97
+----------------------------------------------------------------
…
t OWG-main/robotic-grasping-master/trained-models/jacquard-d-grconvnet3-drop0-ch32/arch.txt
--- OWG-upstream/robotic-grasping-master/trained-models/jacquard-d-grconvnet3-drop0-ch32/arch.txt	1970-01-01 07:30:00.000000000 +0730
+++ OWG-main/robotic-grasping-master/trained-models/jacquard-d-grconvnet3-drop0-ch32/arch.txt	2021-11-10 04:05:50.000000000 +0800
@@ -0,0 +1,57 @@
+----------------------------------------------------------------
+        Layer (type)               Output Shape         Param #
+================================================================
+            Conv2d-1         [-1, 32, 224, 224]           2,624
+       BatchNorm2d-2         [-1, 32, 224, 224]              64
+            Conv2d-3         [-1, 64, 112, 112]          32,832
+       BatchNorm2d-4         [-1, 64, 112, 112]             128
+            Conv2d-5          [-1, 128, 56, 56]         131,200
+       BatchNorm2d-6          [-1, 128, 56, 56]             256
+            Conv2d-7          [-1, 128, 56, 56]         147,584
+       BatchNorm2d-8          [-1, 128, 56, 56]             256
+            Conv2d-9          [-1, 128, 56, 56]         147,584
+      BatchNorm2d-10          [-1, 128, 56, 56]             256
+    ResidualBlock-11          [-1, 128, 56, 56]               0
+           Conv2d-12          [-1, 128, 56, 56]         147,584
+      BatchNorm2d-13          [-1, 128, 56, 56]             256
+           Conv2d-14          [-1, 128, 56, 56]         147,584
+      BatchNorm2d-15          [-1, 128, 56, 56]             256
+    ResidualBlock-16          [-1, 128, 56, 56]               0
+           Conv2d-17          [-1, 128, 56, 56]         147,584
+      BatchNorm2d-18          [-1, 128, 56, 56]             256
+           Conv2d-19          [-1, 128, 56, 56]         147,584
+      BatchNorm2d-20          [-1, 128, 56, 56]             256
+    ResidualBlock-21          [-1, 128, 56, 56]               0
+           Conv2d-22          [-1, 128, 56, 56]         147,584
+      BatchNorm2d-23          [-1, 128, 56, 56]             256
+           Conv2d-24          [-1, 128, 56, 56]         147,584
+      BatchNorm2d-25          [-1, 128, 56, 56]             256
+    ResidualBlock-26          [-1, 128, 56, 56]               0
+           Conv2d-27          [-1, 128, 56, 56]         147,584
+      BatchNorm2d-28          [-1, 128, 56, 56]             256
+           Conv2d-29          [-1, 128, 56, 56]         147,584
+      BatchNorm2d-30          [-1, 128, 56, 56]             256
+    ResidualBlock-31          [-1, 128, 56, 56]               0
+  ConvTranspose2d-32         [-1, 64, 113, 113]         131,136
+      BatchNorm2d-33         [-1, 64, 113, 113]             128
+  ConvTranspose2d-34         [-1, 32, 225, 225]          32,800
+      BatchNorm2d-35         [-1, 32, 225, 225]              64
+  ConvTranspose2d-36         [-1, 32, 225, 225]          82,976
+          Dropout-37         [-1, 32, 225, 225]               0
+           Conv2d-38          [-1, 1, 224, 224]             129
+          Dropout-39         [-1, 32, 225, 225]               0
+           Conv2d-40          [-1, 1, 224, 224]             129
+          Dropout-41         [-1, 32, 225, 225]               0
+           Conv2d-42          [-1, 1, 224, 224]             129
+          Dropout-43         [-1, 32, 225, 225]               0
+           Conv2d-44          [-1, 1, 224, 224]             129
+================================================================
+Total params: 1,893,124
+Trainable params: 1,893,124
+Non-trainable params: 0
+----------------------------------------------------------------
+Input size (MB): 0.19
+Forward/backward pass size (MB): 219.96
+Params size (MB): 7.22
+Estimated Total Size (MB): 227.37
+----------------------------------------------------------------
…
n/robotic-grasping-master/trained-models/jacquard-rgbd-grconvnet3-drop0-ch32/arch.txt
--- OWG-upstream/robotic-grasping-master/trained-models/jacquard-rgbd-grconvnet3-drop0-ch32/arch.txt	1970-01-01 07:30:00.000000000 +0730
+++ OWG-main/robotic-grasping-master/trained-models/jacquard-rgbd-grconvnet3-drop0-ch32/arch.txt	2021-11-10 04:05:50.000000000 +0800
@@ -0,0 +1,53 @@
+----------------------------------------------------------------
+        Layer (type)               Output Shape         Param #
+================================================================
+            Conv2d-1         [-1, 32, 224, 224]          10,400
+       BatchNorm2d-2         [-1, 32, 224, 224]              64
+            Conv2d-3         [-1, 64, 112, 112]          32,832
+       BatchNorm2d-4         [-1, 64, 112, 112]             128
+            Conv2d-5          [-1, 128, 56, 56]         131,200
+       BatchNorm2d-6          [-1, 128, 56, 56]             256
+            Conv2d-7          [-1, 128, 56, 56]         147,584
+       BatchNorm2d-8          [-1, 128, 56, 56]             256
+            Conv2d-9          [-1, 128, 56, 56]         147,584
+      BatchNorm2d-10          [-1, 128, 56, 56]             256
+    ResidualBlock-11          [-1, 128, 56, 56]               0
+           Conv2d-12          [-1, 128, 56, 56]         147,584
+      BatchNorm2d-13          [-1, 128, 56, 56]             256
+           Conv2d-14          [-1, 128, 56, 56]         147,584
+      BatchNorm2d-15          [-1, 128, 56, 56]             256
+    ResidualBlock-16          [-1, 128, 56, 56]               0
+           Conv2d-17          [-1, 128, 56, 56]         147,584
+      BatchNorm2d-18          [-1, 128, 56, 56]             256
+           Conv2d-19          [-1, 128, 56, 56]         147,584
+      BatchNorm2d-20          [-1, 128, 56, 56]             256
+    ResidualBlock-21          [-1, 128, 56, 56]               0
+           Conv2d-22          [-1, 128, 56, 56]         147,584
+      BatchNorm2d-23          [-1, 128, 56, 56]             256
+           Conv2d-24          [-1, 128, 56, 56]         147,584
+      BatchNorm2d-25          [-1, 128, 56, 56]             256
+    ResidualBlock-26          [-1, 128, 56, 56]               0
+           Conv2d-27          [-1, 128, 56, 56]         147,584
+      BatchNorm2d-28          [-1, 128, 56, 56]             256
+           Conv2d-29          [-1, 128, 56, 56]         147,584
+      BatchNorm2d-30          [-1, 128, 56, 56]             256
+    ResidualBlock-31          [-1, 128, 56, 56]               0
+  ConvTranspose2d-32         [-1, 64, 113, 113]         131,136
+      BatchNorm2d-33         [-1, 64, 113, 113]             128
+  ConvTranspose2d-34         [-1, 32, 225, 225]          32,800
+      BatchNorm2d-35         [-1, 32, 225, 225]              64
+  ConvTranspose2d-36         [-1, 32, 225, 225]          82,976
+           Conv2d-37          [-1, 1, 224, 224]             129
+           Conv2d-38          [-1, 1, 224, 224]             129
+           Conv2d-39          [-1, 1, 224, 224]             129
+           Conv2d-40          [-1, 1, 224, 224]             129
+================================================================
+Total params: 1,900,900
+Trainable params: 1,900,900
+Non-trainable params: 0
+----------------------------------------------------------------
+Input size (MB): 0.77
+Forward/backward pass size (MB): 170.52
+Params size (MB): 7.25
+Estimated Total Size (MB): 178.53
+----------------------------------------------------------------
…
+        Compute mean center of all GraspRectangles
+        :return: float, mean centre of all GraspRectangles
+        """
+        points = [gr.points for gr in self.grs]
+        return np.mean(np.vstack(points), axis=0).astype(np.int)
+
+
+class GraspRectangle:
+    """
+    Representation of a grasp in the common "Grasp Rectangle" format.
+    """
+
+    def __init__(self, points):
+        self.points = points
+
+    def __str__(self):
+        return str(self.points)
+
+    @property
+    def angle(self):
+        """
+        :return: Angle of the grasp to the horizontal.
+        """
+        dx = self.points[1, 1] - self.points[0, 1]
+        dy = self.points[1, 0] - self.points[0, 0]
+        return (np.arctan2(-dy, dx) + np.pi / 2) % np.pi - np.pi / 2
+
+    @property
+    def as_grasp(self):
+        """
+        :return: GraspRectangle converted to a Grasp
+        """
+        return Grasp(self.center, self.angle, self.length, self.width)
+
+    @property
+    def center(self):
+        """
+        :return: Rectangle center point
+        """
+        return self.points.mean(axis=0).astype(np.int)
+
+    @property
+    def length(self):
+        """
+        :return: Rectangle length (i.e. along the axis of the grasp)
+        """
+        dx = self.points[1, 1] - self.points[0, 1]
+        dy = self.points[1, 0] - self.points[0, 0]
+        return np.sqrt(dx ** 2 + dy ** 2)
+
+    @property
+    def width(self):
+        """
+        :return: Rectangle width (i.e. perpendicular to the axis of the grasp)
+        """
+        dy = self.points[2, 1] - self.points[1, 1]
+        dx = self.points[2, 0] - self.points[1, 0]
+        return np.sqrt(dx ** 2 + dy ** 2)
+
+    def polygon_coords(self, shape=None):
+        """
+        :param shape: Output Shape
+        :return: Indices of pixels within the grasp rectangle polygon.
+        """
+        return polygon(self.points[:, 0], self.points[:, 1], shape)
+
+    def compact_polygon_coords(self, shape=None):
+        """
+        :param shape: Output shape
…
